model_outputs/vsnet_depthwise/best_model.pth (torch, 176077 bytes, 74 tensors)

convbnrelu1_1.cbr_unit.0.weight f4 [1, 1, 3, 5, 5]
0.012762951 0.042894542 -0.063228525 0.06611083 -0.00792626 -0.014561505 -0.07367963 0.086871535
-0.07911888 -0.040007744 0.0040039937 0.039350595 -0.027629841 -0.06046466 0.10231591 -0.086739
-0.0722341 -0.08536214 -0.073956095 0.08385254 -0.08533704 -0.113116644 0.077365205 -0.013040757
-0.11270359 -0.023167 0.0071042315 0.062284093 0.04834964 0.07205636 -0.10306914 0.039767347
0.076747924 -0.06678033 0.055274155 0.013827037 0.09100903 -0.06084679 -0.0030333635 -0.028535029
-0.050242826 0.0770924 -0.0075952657 -0.047457803 -0.06588635 0.100348175 -0.041242987 0.005217069
0.06445262 -0.09793696 0.082338706 -0.0534804 -0.107378334 -0.031737417 0.07255911 -0.0104661025
-0.07659378 0.0112620825 0.021545377 -0.034845978 0.040466134 0.01329947 0.0376552 0.06306529
0.046869196 -0.06009442 -0.07587774 -0.012216211 0.032354355 -0.06325768 0.017995872 0.030239157
-0.019385492 0.10441703 -0.08637803
00000000: b21b 513c 30b2 2f3d f57d 81bd 1d65 873d
00000010: 25dd 01bc 6193 6ebc 59e5 96bd b4e9 b13d
00000020: 1409 a2bd 29df 23bd ef33 833b 172e 213d
00000030: fa57 e2bc cba9 77bd 018b d13d 38a4 b1bd
00000040: 79ef 93bd 58d2 aebd 4b76 97bd e1ba ab3d
00000050: 30c5 aebd b3a9 e7bd a671 9e3d e6a8 55bc
00000060: 24d1 e6bd b8c8 bdbc 9dca e83b 9b1d 7f3d
00000070: 460a 463d 4992 933d ea15 d3bd 16e3 223d
00000080: 042e 9d3d 20c4 88bd 2767 623d cc8a 623c
00000090: f162 ba3d 7c3a 79bd 65cb 46bb 4bc2 e9bc
000000a0: 6ccb 4dbd 9fe2 9d3d b5e1 f8bb 1d63 42bd
000000b0: 6cef 86bd 5883 cd3d 68ee 28bd f2f3 aa3b
000000c0: bcff 833d 2c93 c8bd 32a1 a83d 440e 5bbd
000000d0: 2ce9 dbbd 18ff 01bd df99 943d 047a 2bbc
000000e0: 33dd 9cbd 9984 383c ee7f b03c a8ba 0ebd
000000f0: d1bf 253d 05e6 593c 573c 1a3d 6028 813d
00000100: eaf9 3f3d 9125 76bd ca65 9bbd 8126 48bc
00000110: 0086 043d 3e8d 81bd 146c 933c 1cb8 f73c
00000120: 53ce 9ebc 99d8 d53d f7e6 b0bd

convbnrelu1_1.cbr_unit.1.weight f4 [32, 1, 1, 1, 1]
-0.19897692 -0.40124318 0.70232326 -0.35332692 0.36952883 -0.6474234 0.66378117 0.7641356
0.9307338 -0.17199081 -0.4543036 -0.6661986 0.094978884 0.9170896 0.33772558 -0.42685133
-0.9323462 -0.65134585 -0.20190932 0.82413447 -0.6850766 -0.8832325 -0.44511425 0.83986515
-0.048575226 0.23423521 -0.059794392 -0.8555672 -0.5473581 -0.3227611 0.7180268 -0.7326387
00000000: 9bc0 4bbe bf6f cdbe 75cb 333f 44e7 b4be
00000010: e232 bd3e 8abd 25bf 90ed 293f 649e 433f
00000020: 9244 6e3f 5c1e 30be 7b9a e8be fe8b 2abf
00000030: 4a84 c23d 62c6 6a3f 5eea ac3e 428c dabe
00000040: 3eae 6ebf 9abe 26bf 51c1 4ebe 7afa 523f
00000050: 2e61 2fbf 861b 62bf 04e6 e3be 6701 573f
00000060: d1f6 46bd 5bdb 6f3e f7ea 74bd 7406 5bbf
00000070: a91f 0cbf f140 a5be 9bd0 373f 368e 3bbf

convbnrelu1_1.cbr_unit.1.bias f4 [32]
-0.12641178 0.18030053 -0.123318054 0.07445633 -0.5304781 -0.17121378 0.86070716 0.8022467
-0.014866828 -0.35062402 0.20796618 0.89608973 -0.6207094 -0.55697614 -0.6876605 0.838645
-0.9703393 0.09089238 0.36796716 -0.50259775 0.20872365 0.6187357 -0.022242883 -0.262074
0.51131177 -0.35758358 -0.65804386 0.9292905 0.021946417 -0.64975345 -0.22986044 -0.27215126
00000000: 1772 01be b4a0 383e 2d8e fcbd 8f7c 983d
00000010: 6acd 07bf aa52 2fbe 4e57 5c3f 0a60 4d3f
00000020: ff93 73bc fe84 b3be 16f5 543e 2366 653f
00000030: d0e6 1ebf fd95 0ebf 850a 30bf 70b1 563f
00000040: 2868 78bf c925 ba3d 3166 bc3e 3faa 00bf
00000050: a7bb 553e 7665 1e3f b536 b6bc 902e 86be
00000060: 54e5 023f 3215 b7be 9075 28bf fbe5 6d3f
00000070: f9c8 b33c 3e56 26bf 8960 6bbe 6957 8bbe

convbnrelu1_1.cbr_unit.3.weight f4 [32]
0.24837098 0.2521265 0.2516701 0.24871771 0.254287 0.24939506 0.25240514 0.2500413
0.25505272 0.24761693 0.24294746 0.23928872 0.25503197 0.24954163 0.24809797 0.257686
0.24208534 0.24637055 0.24926744 0.24515182 0.25223005 0.24834399 0.25502583 0.25167853
0.24926412 0.24429952 0.24610974 0.2422274 0.23656486 0.23944108 0.25041923 0.24376011
00000000: f654 7e3e b916 813e e7da 803e dbaf 7e3e
00000010: e831 823e 6b61 7f3e 3f3b 813e 6a05 803e
00000020: 4596 823e 4b8f 7d3e 38c7 783e 1a08 753e
00000030: 8d93 823e d787 7f3e 650d 7e3e 6bef 833e
00000040: 38e5 773e 9048 7c3e f73f 7f3e 1409 7b3e
00000050: 4c24 813e e34d 7e3e bf92 823e 02dc 803e
00000060: 183f 7f3e a729 7a3e 3104 7c3e 760a 783e
00000070: 0f3e 723e 0b30 753e f336 803e 409c 793e

scse26.fc1.weight f4 [16, 32]
0.040073667 0.061962906 0.06572453 -0.16445462 -0.06919788 -0.13984181 -0.15943621 0.07823462
-0.090103745 -0.14935787 -0.047704246 0.15995327 0.08254662 -0.020611221 0.06885336 -0.102347255
0.13986243 -0.16801167 0.08985346 0.008627671 0.042248357 0.034580033 0.057184126 0.05687932
0.044310644 0.024467256 0.086565346 -0.0005112834 -0.09653759 -0.038891423 -0.08552746 0.015232946
-0.15030165 -0.039811913 -0.1373554 0.15285404 0.16928105 -0.09837106 0.15810029 0.14481507
-0.06896971 -0.16912249 0.082098395 -0.105094306 0.13893609 0.09190291 0.15135449 -0.15388267
-0.15355702 0.16141012 0.15911078 0.1011356 -0.16046515 -0.17139624 -0.0423622 -0.0033327409
-0.057925407 -0.005916743 0.085979946 -0.030817438 0.057743922 0.10154345 -0.15913841 0.15088211
0.10299541 -0.10931525 -0.080187894 -0.10521558 -0.041580964 0.034820925 0.06797178 0.066642806
-0.11885215 0.14913228 0.08907916 0.03564186 0.1199481 -0.09605229 0.17314893 0.11132118
-0.14656734 -0.12399784 -0.06509142 0.101663716 0.023880383 0.082898445 0.040766772 -0.07304622
-0.14763522 0.045946512 -0.1282143 -0.06928438 0.079746574 -0.11481086 0.14656499 0.051932566
0.122009136 0.1752749 -0.043237798 -0.1625843 0.10856809 -0.14912942 -0.09770339 0.06895445
0.014847155 -0.15027711 -0.107004106 -0.1271637 -0.0054932726 0.041706182 -0.17093383 0.16251776
0.15521327 -0.15195954 -0.0069274036 0.07645402 -0.05173831 0.042908482 0.09276483 0.15239224
-0.09876993 -0.11020063 0.03224923 -0.16062643 0.035156075 -0.12133599 0.055880547 -0.04192564
-0.013356378 0.014974122 0.13312255 0.14383227 0.124440715 -0.077271774 -0.012019838 0.14044356
-0.015336142 -0.042472325 0.07798585 0.07135609 0.14822091 -0.08352882 -0.10429556 -0.13242948
-0.009690614 -0.06639096 -0.056819282 -0.16985993 0.07329636 0.012288693 -0.10501273 0.16815981
-0.009710908 -0.023354875 0.09987482 -0.14117111 0.0640752 0.047732253 -0.074780665 0.07230041
0.055649538 -0.07281867 0.07093883 -0.14061406 -0.13664624 -0.12500414 0.019044243 0.038264133
-0.16216974 -0.1026653 0.14524412 0.14671718 0.0068502114 0.09128124 -0.06157231 0.067840666
0.0065450473 -0.13516581 0.056524716 -0.17359391 -0.008861101 0.018117033 0.14820808 -0.12006971
-0.061670046 -0.17582059 -0.09453605 -0.011280899 0.17497694 0.061388634 0.15362199 -0.03990086
0.16464116 -0.05428754 0.07181802 -0.0772011 0.1021541 0.086599216 0.007921247 -0.041047912
0.08528815 0.027900793 -0.16953595 -0.07737382 -0.06621143 0.10881176 0.07709381 0.09277147
-0.103970245 0.07529517 0.17262992 -0.03005614 -0.14939441 -0.075674415 -0.09127791 -0.092967436
-0.0009058411 -0.08877409 -0.0656744 -0.13476482 -0.013252782 -0.06117107 -0.079903804 0.03463826
-0.0028877123 -0.10612996 0.05376239 -0.048130773 -0.13696338 -0.09572099 -0.15880294 -0.13946196
0.16396469 -0.047049727 -0.0076180636 -0.17582475 -0.124554306 -0.053918295 -0.11575442 0.17138433
0.011076023 0.011170158 0.13550384 -0.012638617 -0.114333585 -0.10662029 -0.1511779 0.056481898
0.111128405 -0.060186457 -0.098793834 0.030751225 0.10145968 -0.049297083 0.12660375 -0.028254636
00000000: 4924 243d d1cc 7d3d 959a 863d cb66 28be
00000010: 9eb7 8dbd b132 0fbe 3f43 23be 7939 a03d
00000020: 5088 b8bd 45f1 18be 8765 43bd caca 233e
00000030: 340e a93d ddd8 a8bc fe02 8d3d 709b d1bd
00000040: 1938 0f3e 400b 2cbe 1705 b83d 135b 0d3c
00000050: 9d0c 2d3d cba3 0d3d e739 6a3d 4afa 683d
00000060: 147f 353d 8e6f c83c 2c49 b13d a607 06ba
00000070: 80b5 c5bd 9d4c 1fbd 0529 afbd 9b93 793c
00000080: ade8 19be d111 23bd e5a6 0cbe c585 1c3e
00000090: 0358 2d3e c476 c9bd 0be5 213e 674a 143e
000000a0: fe3f 8dbd 722e 2dbe 3423 a83d af3b d7bd
000000b0: 4345 0e3e 9837 bc3d acfc 1a3e 6b93 1dbe
000000c0: 0d3e 1dbe b248 253e f0ed 223e 2e20 cf3d
000000d0: fa50 24be 7f82 2fbe fc83 2dbd 1d6a 5abb
000000e0: 3143 6dbd 3de1 c1bb 4116 b03d da74 fcbc
000000f0: e484 6c3d 03f6 cf3d 2ef5 22be d780 1a3e
00000100: 42ef d23d ace0 dfbd 8d39 a4bd 447b d7bd
00000110: cd50 2abd 63a0 0e3d ca34 8b3d 067c 883d
00000120: c268 f3bd 22b6 183e 226f b63d 33fd 113d
00000130: 59a7 f53d 10b7 c4bd f44d 313e 5cfc e33d
00000140: c015 16be 94f2 fdbd a74e 85bd 1135 d03d
00000150: cba0 c33c a9c6 a93d 0ffb 263d 4299 95bd
00000160: b02d 17be 6932 3c3d 9c4a 03be f8e4 8dbd
00000170: 2c52 a33d f521 ebbd 2215 163e 3eb7 543d
00000180: eddf f93d 437b 333e 1e1a 31bd 807c 26be
00000190: f258 de3d 62b5 18be b718 c8bd fe37 8d3d
000001a0: 7b41 733c 3ee2 19be f824 dbbd 3337 02be
000001b0: e900 b4bb 1ad4 2a3d 4709 2fbe 0e6b 263e
000001c0: 3af0 1e3e 489b 1bbe 46ff e2bb ed93 9c3d
000001d0: 8deb 53bd cec0 2f3d 7dfb bd3d b60c 1c3e
000001e0: e447 cabd deb0 e1bd c517 043d 417b 24be
000001f0: d1ff 0f3d 017f f8bd 00e3 643d 38ba 2bbd
00000200: b6d4 5abc 0556 753c 4751 083e c448 133e
00000210: c6da fe3d aa40 9ebd dbee 44bc 70d0 0f3e
00000220: 7144 7bbc 76f7 2dbd 0cb7 9f3d 2423 923d
00000230: 39c7 173e 2811 abbd e998 d5bd 989b 07be
00000240: 62c5 1ebc fcf7 87bd 56bb 68bd c3ef 2dbe
00000250: 671c 963d 8456 493c ea10 d7bd 1632 2c3e
00000260: 801a 1fbc b952 bfbc 2b8b cc3d 298f 10be
00000270: dc39 833d e582 433d 9b26 99bd 3d12 943d
00000280: c5f0 633d f421 95bd 6148 913d 22fd 0fbe
00000290: feec 0bbe 1601 00be ac02 9c3c daba 1c3d
000002a0: d30f 26be 2f42 d2bd e0ba 143e 073d 163e
000002b0: bd77 e03b a9f1 ba3d 3f33 7cbd 0cf0 8a3d
000002c0: d677 d63b e868 0abe 7686 673d 9ac2 31be
000002d0: 272e 11bc 2c6a 943c dcc3 173e 1ce7 f5bd
000002e0: bb99 7cbd 500a 34be 1e9c c1bd 85d3 38bc
000002f0: 282d 333e a672 7b3d 154f 1d3e 166f 23bd
00000300: b197 283e 9d5c 5ebd 5315 933d 9c1b 9ebd
00000310: 2b36 d13d ee5a b13d 1ec8 013c db21 28bd
00000320: 8eab ae3d 3490 e43c d59a 2dbe 2a76 9ebd
00000330: dc99 87bd b3d8 de3d 5ce3 9d3d f8fe bd3d
00000340: 5aee d4bd 5b34 9a3d e6c5 303e 4b38 f6bc
00000350: d9fa 18be 30fb 9abd eaef babd b665 bebd
00000360: f875 6dba 31cf b5bd 4d80 86bd caff 09be
00000370: 3222 59bc 848e 7abd 9ba4 a3bd d9e0 0d3d
00000380: c63f 3dbb aa5a d9bd f435 5c3d c624 45bd
00000390: 2140 0cbe 5e09 c4bd 3d9d 22be 1ecf 0ebe
000003a0: 5ce6 273e 37b7 40bd f3a0 f9bb 670b 34be
000003b0: 5416 ffbd 6ed9 5cbd a710 edbd 607f 2f3e
000003c0: 3578 353c 0a03 373c 85c1 0a3e 3412 4fbc
000003d0: ba27 eabd bd5b dabd 61ce 1abe 9059 673d
000003e0: 4a97 e33d 1386 76bd 6c54 cabd fee9 fb3c
000003f0: 18ca cf3d bdeb 49bd 6aa4 013e 4476 e7bc

scse26.fc1.bias f4 [16]
0.10070806 -0.14303558 0.17292488 -0.009098998 -0.09527402 -0.11533504 -0.16770911 0.018461479
-0.028560959 -0.11154747 0.006554383 -0.040649075 0.019514602 -0.118213184 -0.018265137 -0.0444087
00000000: 0740 ce3d eb77 12be 3813 313e f713 15bc
00000010: 071f c3bd c734 ecbd f0bb 2bbe 873c 973c
00000020: acf8 e9bc 0073 e4bd 26c6 d63b a57f 26bd
00000030: 16dd 9f3c c119 f2bd c5a0 95bc e6e5 35bd

scse26.fc2.weight f4 [32, 16]
0.21170068 0.12012392 -0.22390142 -0.15826285 -0.019685477 -0.23360974 -0.037967414 0.13434574
-0.20958456 0.1127947 -0.18432808 -0.13984847 0.22285336 -0.0846754 -0.04098499 0.049612403
0.14407018 -0.14046952 -0.10458836 0.043094307 -0.23637173 0.16364232 0.07036382 -0.06554785
0.24163893 0.14281607 0.1572527 0.18054134 -0.087539166 -0.23639616 0.18169227 -0.07767987
0.14469153 -0.24325624 -0.16240743 -0.249174 -0.044796824 0.0051748455 -0.1781359 0.24909034
-0.11483008 -0.022978008 0.10368845 -0.078005224 -0.17869398 0.090390116 0.022748739 0.14470673
0.01792264 -0.18830705 -0.1759611 -0.12004501 0.22527736 0.016486943 0.092208505 0.16830835
0.03411296 0.038609356 0.012025207 0.21968848 0.14287046 -0.15299487 -0.0011277795 0.005901426
-0.05091694 -0.18619567 0.115704805 -0.011224031 0.10746485 -0.16998205 0.19897968 -0.05494353
-0.011665314 0.11697489 0.06222725 0.04591596 0.057563037 0.2232807 0.0033399165 0.118389964
-0.23062932 -0.07294071 0.18575162 -0.101750195 0.16751826 -0.11528796 0.23244044 -0.16024414
0.21174258 0.05828029 -0.21889603 -0.06173411 0.10095152 0.04429373 -0.18647745 -0.07725415
-0.05533737 0.04354152 0.15307951 -0.24758875 0.11524364 -0.0787946 0.19822598 -0.10541424
-0.17949349 0.010513812 0.23820743 -0.20813024 0.123901874 0.047016025 -0.059882075 -0.18773565
-0.14696515 -0.21066725 0.11270386 0.22411713 0.17925775 -0.14534879 0.24266478 -0.060706228
0.058926553 0.24278939 -0.02350539 0.028090507 0.03496021 -0.11581689 0.22099346 0.040180504
-0.11451405 -0.1071845 0.14261445 0.22333437 -0.11823249 -0.16450426 0.100031346 -0.23310274
-0.24182579 -0.11698541 0.025384963 -0.23104876 0.048700213 -0.15137157 -0.15776017 0.22378239
-0.24583659 0.24528906 0.12723437 -0.15291798 -0.20328599 -0.10398841 -0.024064988 0.14817876
-0.19571403 -0.15524855 -0.13081089 0.19460058 0.07991716 0.15242243 0.22792134 -0.03274849
-0.018799454 -0.10819435 0.047899187 0.08759877 0.16067311 0.0055378377 -0.061644763 -0.077493906
-0.019478232 0.059311926 0.09154147 -0.18098235 -0.08755952 -0.07169506 0.07367575 0.008119613
0.113491684 -0.082507014 -0.032084197 0.019178808 -0.078998595 -0.16899046 -0.059422195 -0.1650874
-0.14433277 0.044132084 -0.18196633 -0.16980818 0.18169853 -0.24428281 -0.119826645 -0.20111182
-0.13061643 -0.11536223 -0.24392578 0.23398969 -0.16774401 -0.21535984 0.06609213 0.15163094
-0.12921512 -0.037539035 0.24716315 0.11484921 -0.09142545 0.21637353 -0.20530993 -0.08532837
0.015106171 0.11456388 0.0074643195 0.12543994 -0.11361262 -0.06288779 0.19224438 0.23732409
-0.026025236 0.10670236 -0.034800977 0.10727513 0.11040172 -0.1033535 0.1802111 0.1396249
-0.21726191 -0.09181526 -0.02885136 -0.1457023 -0.088472426 0.11178574 -0.19373685 0.141592
0.16984367 0.21546623 -0.053136498 0.14618835 -0.14427218 -0.239734 -0.036159813 0.22716531
-0.21527678 0.06755793 -0.040777504 0.23256847 0.08683601 0.17779416 -0.09887475 0.0812794
0.19064355 0.010076433 -0.15898412 -0.030182302 -0.20812628 0.14175713 0.11079013 -0.041257173
00000000: 10c8 583e 8803 f63d 6a46 65be a80f 22be
00000010: 7043 a1bc 6437 6fbe b883 1bbd ee91 093e
00000020: 569d 56be e800 e73d 80c0 3cbe 7034 0fbe
00000030: ac33 643e 4c6a adbd e0df 27bd 6036 4b3d
00000040: 2287 133e 3ed7 0fbe 6c32 d6bd a883 303d
00000050: 6e0b 72be da91 273e e81a 903d f43d 86bd
00000060: 3270 773e 603e 123e da06 213e d4df 383e
00000070: bc47 b3bd d611 72be 8a0d 3a3e a016 9fbd
00000080: 042a 143e 2a18 79be 224e 26be 7827 7fbe
00000090: e07c 37bd c091 a93b 4269 36be 8a11 7f3e
000000a0: 082c ebbd 603c bcbc 9c5a d43d 34c1 9fbd
000000b0: 8efb 36be 741e b93d 905b ba3c 002e 143e
000000c0: 80d2 923c 90d3 40be 262f 34be 28da f5bd
000000d0: 1caf 663e a00f 873c d0d7 bc3d 0659 2c3e
000000e0: 08ba 0b3d d824 1e3d 6005 453c 04f6 603e
000000f0: a24c 123e b0aa 1cbe 00d2 93ba c060 c13b
00000100: 488e 50bd 14aa 3ebe a4f6 ec3d 00e5 37bc
00000110: 8816 dc3d c60f 2ebe 54c1 4b3e 780c 61bd
00000120: e01f 3fbc 8890 ef3d 00e2 7e3d 6012 3c3d
00000130: 38c7 6b3d b2a3 643e 80e2 5a3b 7076 f23d
00000140: 182a 6cbe f061 95bd ac35 3e3e 6862 d0bd
00000150: e889 2b3e 181c ecbd de04 6e3e 0a17 24be
00000160: 0cd3 583e 50b7 6e3d 4826 60be e8dc 7cbd
00000170: acbf ce3d 586d 353d f2f3 3ebe 6c37 9ebd
00000180: 70a9 62bd 9858 323d e0c0 1c3e e887 7dbe
00000190: dc04 ec3d 105f a1bd c0fb 4a3e 6ce3 d7bd
000001a0: 24cd 37be 2042 2c3c a6ec 733e 1820 55be
000001b0: 44c0 fd3d e093 403d e846 75bd c63d 40be
000001c0: 087e 16be 28b9 57be 48d1 e63d f67e 653e
000001d0: 588f 373e 50d6 14be 1e7d 783e 18a7 78bd
000001e0: f85c 713d c89d 783e 608e c0bc 101e e63c
000001f0: 7032 0f3d 6831 edbd 1c4c 623e 5094 243d
00000200: 5886 eabd 8c83 dbbd 8609 123e c4b1 643e
00000210: e023 f2bd ce73 28be 3cdd cc3d 7cb2 6ebe
00000220: 2ea1 77be 0c96 efbd 20f4 cf3c 0c98 6cbe
00000230: e079 473d 2601 1bbe e28b 21be 3627 653e
00000240: 96bc 7bbe 0e2d 7b3e ba49 023e 8896 1cbe
00000250: 342a 50be e0f7 d4bd f023 c5bc 2cbc 173e
00000260: 4269 48be 7af9 1ebe 4af3 05be 6045 473e
00000270: 9cab a33d a014 1c3e 3664 693e 4823 06bd
00000280: 5001 9abc 0095 ddbd f031 443d fc66 b33d
00000290: 7e87 243e c076 b53b 387f 7cbd 20b5 9ebd
000002a0: d090 9fbc 10f1 723d 187a bb3d 7053 39be
000002b0: 6852 b3bd dcd4 92bd 50e3 963d 2008 053c
000002c0: 546e e83d 70f9 a8bd b86a 03bd e01c 9d3c
000002d0: 04ca a1bd d60b 2dbe b064 73bd ac0c 29be
000002e0: f8cb 13be d8c3 343d 6255 3abe 32e2 2dbe
000002f0: 2e0f 3a3e 4625 7abe ac67 f5bd 42f0 4dbe
00000300: 50c0 05be 0843 ecbd aec7 79be fe9a 6f3e
00000310: 16c5 2bbe 4a87 5cbe 505b 873d 2445 1b3e
00000320: f850 04be 88c2 19bd 5618 7d3e 1036 eb3d
00000330: 443d bbbd 0691 5d3e c43c 52be a4c0 aebd
00000340: e07f 773c 78a0 ea3d 4097 f43b 5473 003e
00000350: bcad e8bd 50cb 80bd b6db 443e 1605 733e
00000360: e032 d5bc c486 da3d 788b 0ebd 10b3 db3d
00000370: 4c1a e23d 00ab d3bd 4289 383e d4f9 0e3e
00000380: e879 5ebe a409 bcbd b059 ecbc fc32 15be
00000390: 0831 b5bd ecef e43d f462 46be 7efd 103e
000003a0: 80eb 2d3e 2ea3 5c3e a8a5 59bd 66b2 153e
000003b0: 16bc 13be d47c 75be 501c 14bd 069e 683e
000003c0: 8471 5cbe d05b 8a3d 5006 27bd 6e26 6e3e
000003d0: 14d7 b13d ac0f 363e d87e cabd d075 a63d
000003e0: 1038 433e a017 253c bccc 22be e040 f7bc
000003f0: 0e1f 55be c828 113e f0e5 e23d 48fd 28bd

scse26.fc2.bias f4 [32]
-0.030684352 0.14624318 -0.12545437 0.044275403 -0.09060317 -0.03224659 0.09988937 0.08710992
0.09914401 0.24557477 -0.094617575 0.24347073 -0.16965637 0.12797847 0.22312924 -0.03890398
0.16522375 0.16928893 -0.14214027 0.12964973 0.12024921 0.003548056 -0.15443909 -0.09340906
-0.097307 -0.06969583 -0.044801652 -0.1250233 0.078573346 0.18315014 0.06972301 -0.022744447
00000000: c05d fbbc c6c0 153e 1c77 00be 205a 353d
00000010: 288e b9bd 0015 04bd cc92 cc3d b066 b23d
00000020: 040c cb3d f477 7b3e dcc6 c1bd 6450 793e
00000030: 66ba 2dbe ca0c 033e fe7b 643e c859 1fbd
00000040: 6a30 293e 145a 2d3e 388d 11be e6c2 043e
00000050: 3845 f63d 8086 683b 4825 1ebe 404d bfbd
00000060: e448 c7bd b0bc 8ebd f081 37bd 1c06 00be
00000070: 10eb a03d b68b 3b3e f0ca 8e3d 9052 babc

convbnrelu1_2.cbr_unit.0.weight f4 [32, 1, 3, 5, 5]
0.10223807 0.080497086 -0.09823427 -0.09731301 0.060769062 0.08653363 0.0068767155 -0.07146758
0.00825495 0.078466006 -0.01638591 -0.047014683 -0.07631087 -0.10172498 0.09876345 0.100247875
0.014233072 -0.09697653 -0.038805317 0.069954775 -0.0014187872 0.11251446 0.024389694 -0.055467356
-0.07025269 -0.08003144 -0.058297962 -0.04506085 -0.09193287 -0.027889425 -0.0032708496 -0.11688164
-0.08432806 -0.015886014 0.08559608 0.06781253 -0.007304798 0.06271461 -0.09218226 0.03193505
-0.048927344 -0.05462545 -0.05586346 -0.03825018 -0.10909049 -0.07369493 -0.07342822 0.019517612
-0.08405831 0.05967887 0.05958428 0.0019158851 0.009167886 0.048867356 -0.0856158 -0.09277727
-0.054154873 -0.0607861 -0.040505607 0.0131016495 -0.08757117 -0.09857157 -0.11716937 -0.07011939
-0.055567246 -0.04481285 -0.06605313 0.10650217 0.07702745 0.0016548063 0.07144475 -0.05808803
-0.06778188 -0.09197916 0.0960523 0.02165382 0.09766221 0.07358036 -0.08126491 -0.023038136
0.007435561 0.09014765 -0.009404968 0.10142705 0.038751062 0.105652414 -0.014103503 0.06751599
0.021936916 0.08515022 -0.052441794 -0.108109996 0.0811219 0.010041697 -0.1081245 -0.026450826
-0.033714525 0.030861838 -0.10199968 -0.09835248 -0.10785335 0.06784573 0.08774703 0.051156323
0.063794024 0.010589039 -0.005353601 -0.08193519 0.055122513 0.053553425 0.11160385 0.004514021
-0.057626426 -0.073460385 0.06979508 0.10471093 0.06666914 0.113740645 -0.07066807 -0.07224115
-0.036960535 -0.059562836 -0.11136799 0.068663724 0.06919824 -0.11141786 0.09150113 -0.09754017
0.107160695 0.06984096 -0.07588437 -0.031526826 0.05921956 0.07297038 0.005304917 0.06392948
0.0804069 -0.020651966 0.005580775 -0.08689834 0.08102125 -0.008725698 -0.0053203134 0.061207347
-0.052233394 0.027716305 -0.006720162 -0.082098 -0.076424815 0.08060464 0.04028691 -0.087886006
-0.113319695 0.0716627 0.052345682 0.10303169 0.054927476 0.005506294 0.018396731 0.07107241
0.07817646 -0.007898115 0.10869166 0.08761268 0.060630165 -0.058436017 0.03397644 0.038136423
-0.040629506 -0.010749294 -0.07868347 -0.06330482 -0.044342544 -0.03911828 0.06509893 -0.02209765
-0.09972404 0.04316033 -0.0062467814 0.03288659 0.08700035 0.017875265 0.002827669 -0.086309664
0.068826385 -0.053751003 -0.040721707 0.03430972 0.07583725 -0.10485924 0.073886566 0.019635309
-0.10105039 0.102796905 -0.0354963 -0.024579728 -0.043146767 0.07446646 0.046394445 0.011862305
-0.058221646 -0.024358746 -0.10277568 -0.11717059 0.02814065 -0.025365142 0.056588057 0.0885509
0.052526526 0.028658004 0.0837941 -0.048668962 -0.085835494 -0.09109175 -0.037884753 0.017629523
0.022047028 0.09812441 -0.015619486 -0.03079821 0.09864594 -0.012452866 -0.06956081 -0.08356433
-0.08901249 0.073212 -0.010315995 -0.09864146 0.034110215 0.040074874 0.07762523 0.068197176
0.033533636 -0.096560925 -0.025225565 0.07051878 0.08271329 -0.04938947 0.101790465 0.098696165
-0.034200028 -0.101504065 -0.105558634 0.031234082 -0.08955272 0.07703453 0.013120891 -0.078891344
-0.083317354 0.067711554 -0.038336754 0.061336327 -0.024429725 0.050816815 0.019128753 0.02062561
00000000: 3162 d13d a8db a43d 0d2f c9bd 0b4c c7bd
00000010: fbe8 783d 8b38 b13d 1256 e13b 985d 92bd
00000020: c53f 073c c9b2 a03d be3b 86bc 7892 40bd
00000030: e048 9cbd 3055 d0bd 7e44 ca3d c24e cd3d
00000040: d531 693c a29b c6bd 53f2 1ebd 7344 8f3d
00000050: 99f6 b9ba fb6d e63d e5cc c73c bd31 63bd
00000060: a4e0 8fbd 86e7 a3bd d8c9 6ebd ba91 38bd
00000070: 4d47 bcbd 5d78 e4bc c05b 56bb a45f efbd
00000080: 31b4 acbd 6323 82bc ff4c af3d 4ce1 8a3d
00000090: 165d efbb 8470 803d 0dca bcbd 54ce 023d
000000a0: 0a68 48bd f0be 5fbd 15d1 64bd 39ac 1cbd
000000b0: d66a dfbd 5eed 96bd 8961 96bd 66e3 9f3c
000000c0: c326 acbd d571 743d a50e 743d 701e fb3a
000000d0: e734 163c 2329 483d 5657 afbd 0202 bebd
000000e0: 80d1 5dbd d8fa 78bd 35e9 25bd 4da8 563c
000000f0: 8358 b3bd e4df c9bd 7ff6 efbd c19a 8fbd
00000100: 7b9a 63bd ae8d 37bd dd46 87bd cf1d da3d
00000110: 91c0 9d3d 16e6 d83a a051 923d b7ed 6dbd
00000120: 3ad1 8abd 925f bcbd 11b7 c43d 5a63 b13c
00000130: 2003 c83d 4db1 963d 386e a6bd 79ba bcbc
00000140: 02a6 f33b 559f b83d 4b17 1abc fcb8 cf3d
00000150: 6fb9 1e3d 4b60 d83d 6112 67bc d345 8a3d
00000160: 0cb5 b33c 3d63 ae3d 35cd 56bd c668 ddbd
00000170: 3d23 a63d ee85 243c 6170 ddbd 67af d8bc
00000180: 3e18 0abd f7d1 fc3c 35e5 d0bd 066d c9bd
00000190: 38e2 dcbd b4f2 8a3d b7b4 b33d 4b89 513d
000001a0: 71a6 823d a67d 2d3c 436d afbb a3cd a7bd
000001b0: 25c8 613d d65a 5b3d 8f90 e43d 5aea 933b
000001c0: b009 6cbd 6672 96bd b9f0 8e3d af72 d63d
000001d0: d489 883d dbf0 e83d 6cba 90bd 2bf3 93bd
000001e0: ee63 17bd 29f8 73bd e714 e4bd 919f 8c3d
000001f0: cfb7 8d3d 0c2f e4bd f264 bb3d 24c3 c7bd
00000200: 1177 db3d c708 8f3d 4469 9bbd 4622 01bd
00000210: 3690 723d 7f71 953d dfd4 ad3b 76ed 823d
00000220: 5fac a43d 502e a9bc efde b63b c2f7 b1bd
00000230: 78ee a53d 3bf6 0ebc 0656 aebb 8eb4 7a3d
00000240: aff2 55bd 4e0d e33c ce34 dcbb ff22 a8bd
00000250: 9d84 9cbd 0c14 a53d e303 253d 94fd b3bd
00000260: 2814 e8bd e5c3 923d 6d68 563d 4702 d33d
00000270: a2fb 603d 246e b43b beb4 963c 698e 913d
00000280: fb1a a03d 1867 01bc bc99 de3d 476e b33d
00000290: 5657 783d 9b5a 6fbd e12a 0b3d f034 1c3d
000002a0: 206b 26bd cf1d 30bc cd24 a1bd f5a5 81bd
000002b0: 87a0 35bd 7d3a 20bd 9652 853d 2206 b5bc
000002c0: 1e3c ccbd e3c8 303d cdb1 ccbb 17b4 063d
000002d0: 3d2d b23d 266f 923c 6a50 393b 1fc3 b0bd
000002e0: d9f4 8c3d 032a 5cbd cecb 26bd 5988 0c3d
000002f0: 8f50 9b3d 71c0 d6bd d751 973d 3ada a03c
00000300: 82f3 cebd 2f87 d23d 9164 11bd 6d5b c9bc
00000310: aaba 30bd df81 983d 1a08 3e3d 1d5a 423c
00000320: d279 6ebd fe8b c7bc 0e7c d2bd 22f7 efbd
00000330: 3887 e63c 8fca cfbc e1c8 673d 2d5a b53d
00000340: 0e26 573d 31c4 ea3c 3e9c ab3d 1b59 47bd
00000350: 85ca afbd 508e babd 0b2d 1bbd ca6b 903c
00000360: f89b b43c 73f5 c83d dfe8 7fbc 874c fcbc
00000370: e206 ca3d 1b07 4cbc e675 8ebd c723 abbd
00000380: 2e4c b6bd 2cf0 953d 6b04 29bc 8904 cabd
00000390: 27b7 0b3d 8d25 243d faf9 9e3d f6aa 8b3d
000003a0: 915a 093d bcc1 c5bd d8a5 cebc 266c 903d
000003b0: 9665 a93d 9d4c 4abd 8577 d03d 3721 ca3d
000003c0: 5415 0cbd 5de1 cfbd 202f d8bd 9ede ff3c
000003d0: 6b67 b7bd 48c4 9d3d 01f9 563c c991 a1bd
000003e0: 4aa2 aabd 5bac 8a3d 0007 1dbd cd3b 7b3d
000003f0: d920 c8bc 4b25 503d e7b3 9c3c 0af7 a83c

convbnrelu1_2.cbr_unit.0.bias f4 [32]
0.0028584886 -0.0029856076 0.086568564 0.049333934 0.090726025 -0.042582564 0.08706038 -0.08838659
0.04605321 -0.034579314 -9.995506e-07 -0.08730562 -0.0010506307 0.07922358 0.0009163206 0.0045742122
0.028618868 -0.07520973 0.0041875457 -0.008225056 0.0011283917 0.062053762 0.014328088 0.0636062
-0.04803812 0.07165031 -0.00882771 -8.053818e-07 0.007970361 -0.008872979 -2.8462608e-07 0.037889734
00000000: 7b55 3b3b 2faa 43bb dc4a b13d 6112 4a3d
00000010: 91ce b93d 0e6b 2ebd b64c b23d 0704 b5bd
00000020: 4aa2 3c3d 0aa3 0dbd 4c28 86b5 4acd b2bd
00000030: 51b5 89ba f93f a23d 3c35 703a 46e3 953b
00000040: 1e72 ea3c 8f07 9abd ae37 893b 63c2 06bc
00000050: 8be6 933a 162c 7e3d 5bc0 6a3c f843 823d
00000060: 9fc3 44bd 66bd 923d 19a2 10bc 6a31 58b5
00000070: 1e96 023c f95f 11bc b6ce 98b4 4432 1b3d

convbnrelu1_2.cbr_unit.1.weight f4 [32, 32, 1, 1, 1]
0.06484206 -0.09639567 0.11592961 -0.038876288 -0.06773467 -0.11052621 -0.11676365 -0.03207126
0.10737458 -0.025786001 0.07268927 -0.15563288 -0.0801928 -0.14537828 -0.16341868 -0.013287089
0.096716896 0.071863085 0.15053128 0.085944824 0.10399678 -0.07807556 -0.12905657 -0.0775524
-0.02017768 0.1017866 0.0014677625 0.049661707 -0.11499333 -0.08891309 -0.045117598 -0.13089633
0.180769 0.14864361 0.16367958 -0.14849436 -0.017661262 -0.017496187 0.10321275 0.108120054
-0.08198874 -0.09539599 -0.13979883 -0.15832348 -0.035174873 -0.028832532 -0.077657014 0.07885173
-0.027700923 0.10748727 -0.04329753 -0.040653925 -0.1692348 -0.11598685 0.094702035 0.0983707
0.060541093 -0.04312176 0.17505436 0.13012113 0.09737601 -0.039033867 0.048784364 0.05433076
0.075473435 -0.11142511 -0.14869505 -0.009275366 -0.06578863 -0.0752682 0.16205195 -0.07591849
0.11589355 0.07016958 0.010199855 -0.16928422 -0.08570296 -0.07946088 0.07425335 0.14983879
-0.09228583 0.09543148 -0.14246881 0.11692613 -0.16221163 0.051592752 -0.107058175 -0.040828273
0.1676418 0.13014607 -0.07854056 -0.033754665 -0.025328703 0.061365392 0.11708899 0.067750864
-0.10405166 0.08712455 0.017729964 -0.18007208 0.0037795666 0.018711617 0.03229062 -0.1082049
-0.04266924 -0.15492444 0.13999042 -0.027341008 0.026944984 0.014073741 -0.1711388 -0.027740758
-0.12977539 0.013301309 -0.11640965 0.005103618 -0.06914836 0.08812211 -0.16557132 -0.13791959
0.023532802 0.17314519 -0.0013436015 -0.16970561 -0.0033248416 0.09577703 0.065982275 -0.1478065
-0.15871033 -0.16925263 -0.15614247 -0.07633345 0.025471147 0.11421712 -0.16939566 0.057892203
0.106198266 0.07476012 -0.14787047 -0.046537418 0.16002756 0.16695249 -0.1338735 -0.050027367
-0.05066561 -0.15915467 -0.14025445 -0.06631865 0.14425029 -0.13383512 -0.044339307 -0.11555331
-0.1218164 -0.046779227 -0.023758894 -0.031725615 0.113448896 0.07409987 0.05363965 0.065822
-0.0036474476 0.105622455 0.012436553 0.0679985 0.11146865 -0.03146534 -0.09144977 -0.004032862
-0.16629107 -0.123975396 -0.13220431 -0.07669964 -0.12575237 0.13625222 -0.13945737 -0.16678157
-0.075977 -0.05917208 -0.14601651 -0.058986828 -0.086995624 -0.05142025 0.10544692 0.003029751
0.15726723 0.17301556 -0.07012312 -0.065413535 0.052971832 0.019940995 0.08722434 -0.053819597
0.15708461 -0.026317345 -0.12226774 0.013277188 0.0767516 -0.08396063 -0.08811625 0.012810387
0.023246111 -0.029145893 0.04195424 0.16017239 0.13164565 0.009931822 -0.13173905 -0.06311068
0.14376011 0.13967028 -0.06637459 0.048737783 0.095008895 -0.10212394 -0.11422634 -6.546321e-05
0.16138783 -0.020892976 -0.07404673 0.009743367 0.09869566 0.124210685 0.134484 0.1177323
-0.041632988 -0.059332 0.0985696 0.018490747 -0.077292606 -0.011559233 -0.06287802 0.026925657
0.034934353 -0.1467832 -0.0729592 -0.0744201 -0.1341065 0.133754 -0.12008962 -0.11367872
-0.091553435 -0.12153552 -0.0799071 -0.06454041 0.1180891 -0.1787839 0.0005849575 0.15453836
0.14619179 0.058077145 0.065841354 0.05374598 -0.15616004 0.13228026 -0.13226166 -0.09167386
00000000: eacb 843d 186b c5bd 816c ed3d be3c 1fbd
00000010: 7ab8 8abd 915b e2bd c821 efbd 275d 03bd
00000020: 34e7 db3d 2a3d d3bc 1dde 943d 3a5e 1fbe
00000030: 1f3c a4bd 0bde 14be 3a57 27be 17b2 59bc
00000040: 8213 c63d f42c 933d df24 1a3e d703 b03d
00000050: 44fc d43d 14e6 9fbd 6827 04be cbd3 9ebd
00000060: a94b a5bc 7e75 d03d f061 c03a 136a 4b3d
00000070: 9f81 ebbd 1118 b6bd 3bcd 38bd b009 06be
00000080: 821b 393e 0836 183e 9f9b 273e e80e 18be
00000090: 5aae 90bc 2a54 8fbc 3561 d33d 0c6e dd3d
000000a0: b6e9 a7bd f95e c3bd 6d27 0fbe 8d1f 22be
000000b0: 8713 10bd 3432 ecbc a40a 9fbd 047d a13d
000000c0: 0ced e2bc 4922 dc3d c058 31bd bb84 26bd
000000d0: e34b 2dbe 838a edbd 24f3 c13d 9476 c93d
000000e0: f0f9 773d 71a0 30bd 7341 333e 793e 053e
000000f0: 136d c73d fae1 1fbd 1dd2 473d ee89 5e3d
00000100: d191 9a3d d932 e4bd 8443 18be b4f7 17bc
00000110: 30bc 86bd 3726 9abd f2f0 253e 277b 9bbd
00000120: 9959 ed3d 12b5 8f3d 4b1d 273c d858 2dbe
00000130: 0985 afbd 63bc a2bd 2412 983d 576f 193e
00000140: 5a00 bdbd 9471 c33d 58e3 11be f876 ef3d
00000150: ce1a 26be ec52 533d 5141 dbbd 8c3b 27bd
00000160: 4baa 2b3e 0345 053e e0d9 a0bd 5542 0abd
00000170: 247e cfbc 475a 7b3d 5acc ef3d f7c0 8a3d
00000180: 0919 d5bd 5b6e b23d 6e3e 913c d164 38be
00000190: 9bb2 773b 1b49 993c 2b43 043d 889a ddbd
000001a0: f1c5 2ebd 83a4 1ebe a659 0f3e 40fa dfbc
000001b0: babb dc3c 8c95 663c 023f 2fbe 9640 e3bc
000001c0: d7e3 04be bced 593c 2f68 eebd 403c a73b
000001d0: a89d 8dbd 5d79 b43d 878b 29be cb3a 0dbe
000001e0: ddc7 c03c f94c 313e c91b b0ba 4fc7 2dbe
000001f0: 96e5 59bb bf26 c43d b721 873d 965a 17be
00000200: f684 22be 9050 2dbe d0e3 1fbe b654 9cbd
00000210: dea8 d03c aaea e93d 0e76 2dbe 6020 6d3d
00000220: 7a7e d93d d51b 993d 5b6b 17be 059e 3ebd
00000230: 44de 233e 98f5 2a3e 2316 09be 7fe9 4cbd
00000240: be86 4fbd 71f9 22be dd9e 0fbe 13d2 87bd
00000250: 59b6 133e 130c 09be 229d 35bd 37a7 ecbd
00000260: e07a f9bd 939b 3fbd 03a2 c2bc b8f2 01bd
00000270: e557 e83d acc1 973d 40b5 5b3d afcd 863d
00000280: 040a 6fbb 9650 d83d afc2 4b3c cc42 8b3d
00000290: ad49 e43d cde1 00bd 044a bbbd 1926 84bb
000002a0: 3548 2abe d0e6 fdbd 9160 07be b314 9dbd
000002b0: 3bc5 00be b485 0b3e eacd 0ebe cac8 2abe
000002c0: d499 9bbd 6c5e 72bd 5a85 15be 2c9c 71bd
000002d0: c32a b2bd 0a9e 52bd 8ef4 d73d c98e 463b
000002e0: a90a 213e fe2a 313e b69c 8fbd 88f7 85bd
000002f0: fef8 583d 4c5b a33c ada2 b23d f071 5cbd
00000300: cada 203e 7997 d7bc 8267 fabd 9088 593c
00000310: f12f 9d3d 8df3 abbd 4b76 b4bd a8e2 513c
00000320: a16e be3c 5ec3 eebc 36d8 2b3d 3b04 243e
00000330: 1ece 063e 15b9 223c 9ae6 06be 2c40 81bd
00000340: da35 133e ba05 0f3e 67ef 87bd 45a1 473d
00000350: 0694 c23d 5b26 d1bd 80ef e9bd 4b49 89b8
00000360: da42 253e bf27 abbc d0a5 97bd a5a2 1f3c
00000370: f320 ca3d 2c62 fe3d 2cb6 093e a21d f13d
00000380: 5a87 2abd 1c06 73bd dcde c93d e879 973c
00000390: 964b 9ebd f062 3dbc 31c6 80bd 3293 dc3c
000003a0: 5317 0f3d 564e 16be a26b 95bd 9169 98bd
000003b0: 3753 09be cff6 083e 8cf1 f5bd 64d0 e8bd
000003c0: 5e80 bbbd 9de7 f8bd 55a6 a3bd c32d 84bd
000003d0: b3d8 f13d 2013 37be d557 193a 4e3f 1e3e
000003e0: 4db3 153e 4de2 6d3d d5d7 863d bf24 5c3d
000003f0: 6be8 1fbe 7a74 073e 9a6f 07be 81bf bbbd

convbnrelu1_2.cbr_unit.1.bias f4 [32]
-0.014782015 -0.07010329 1.6869953e-06 -0.021343835 0.1323728 -0.0863695 0.12850516 0.13068633
0.08335757 0.10679352 0.07958829 0.009457372 0.13141994 -0.056689255 0.02300114 -0.10007644
-0.02692917 -0.13288657 9.755662e-06 -0.09380947 -0.12809817 -0.0062609143 0.0029410713 -0.1265229
-8.8324117e-07 -0.13224696 -0.0934575 -0.095817775 0.03480489 0.09362096 -0.14175893 -0.035613444
00000000: 4430 72bc 5092 8fbd b86c e235 44d9 aebc
00000010: bc8c 073e 7ee2 b0bd db96 033e a3d2 053e
00000020: 60b7 aa3d 90b6 da3d 2fff a23d 18f3 1a3c
00000030: f392 063e fe32 68bd e36c bc3c e0f4 ccbd
00000040: 909a dcbc 6b13 08be 40ac 2337 2e1f c0bd
00000050: 2b2c 03be 5b28 cdbb fdbe 403b 388f 01be
00000060: df17 6db5 bf6b 07be a566 bfbd 1c3c c4bd
00000070: 938f 0e3d 59bc bf3d 4129 11be 67df 11bd

convbnrelu1_2.cbr_unit.3.weight f4 [32]
0.2445975 0.2477569 0.24002342 0.24490273 0.24945514 0.24518798 0.2531011 0.24485433
0.24159975 0.24658912 0.24731418 0.24281628 0.24729899 0.2441541 0.25251225 0.25246516
0.25318563 0.2582016 0.25454074 0.23953503 0.26009893 0.25338486 0.24160804 0.2467566
0.24180308 0.26109517 0.24583393 0.255938 0.2398967 0.24874306 0.23809084 0.24950387
00000000: c477 7a3e fcb3 7d3e b3c8 753e c8c7 7a3e
00000010: 2b71 7f3e 8f12 7b3e 7896 813e 18bb 7a3e
00000020: ed65 773e dc81 7c3e ee3f 7d3e d5a4 783e
00000030: f23b 7d3e 8803 7a3e 4949 813e 1d43 813e
00000040: 8ca1 813e 0033 843e 2a53 823e ac48 753e
00000050: b02b 853e a9bb 813e 1968 773e c3ad 7c3e
00000060: 3a9b 773e 44ae 853e e4bb 7b3e 4e0a 833e
00000070: 7ba7 753e 80b6 7e3e 16ce 733e f17d 7f3e

convbnrelu1_3.cbr_unit.0.weight f4 [32, 1, 3, 5, 5]
0.084351465 0.08136758 -0.05009719 0.062606156 0.051014055 -0.040401943 -0.090864934 0.08772436
0.013479753 -0.09341653 -0.06104802 0.059678886 0.014432423 -0.09388928 0.023913601 0.03659075
-0.03791012 0.059394136 0.07596212 0.08887223 0.014426482 0.103059694 -0.040904887 0.0673654
-0.038689088 0.0250818 -0.042283732 0.045254633 -0.07466079 0.034938507 0.114627734 0.07859743
0.115423016 -0.08690201 -0.062096022 -0.04137637 -0.019947639 -0.0070578037 0.0480389 -0.016282462
-0.06704922 0.047879316 0.056727536 -0.0018973191 0.09407705 0.012787658 -0.08905872 0.080381796
0.0020496247 0.046057828 -0.04481492 0.082673475 -0.05171489 0.022783943 0.07019332 -0.046285253
0.07194435 -0.0727599 -0.05641116 -0.06640087 0.023078134 -0.10213666 0.08807177 -0.06873291
0.11163408 -0.052346937 0.07058141 0.063573085 -0.081105955 -0.10414686 -0.013192245 0.017550329
-0.09137436 -0.079427734 0.11105337 -0.063544385 0.09498453 0.04960709 0.05316422 -0.039041173
0.019731324 0.08590421 0.043468386 0.07751379 -0.055610914 -0.044688012 0.03903356 0.076638654
0.062035706 0.012718491 -0.003925812 0.004136472 -0.022993531 0.03312814 -0.0787509 0.020957787
0.08355268 -0.08790453 0.10603232 -0.0907043 -0.013491367 -0.041057955 0.043196708 -0.076494135
-0.023886062 -0.013698881 -0.026224723 -0.04863243 -0.0930932 0.101651594 0.034205288 0.06839257
0.100675665 0.056338426 -0.057353005 0.038145278 -0.013087547 -0.08007254 0.038261306 -0.08222188
0.09433005 0.09034941 -0.031730115 -0.018313607 0.064933635 -0.03004764 0.034803428 -0.04861659
-0.0062196897 0.08810288 -0.05645628 0.106924444 -0.07031406 0.108327724 0.0211092 -0.08657443
-0.069267504 0.08002112 0.09679231 0.012097349 0.0047886125 0.08379973 0.07234053 0.090347625
-0.0059745396 -0.046189778 0.08333044 0.08898972 -0.09374976 0.08497849 -0.04898441 0.10092098
0.037693188 0.0016390373 -0.04804877 -0.08452382 0.08121004 0.022040974 0.11762396 0.042733405
-0.054385383 -0.077576675 -0.06775616 0.06376451 0.10991096 0.0013326643 -0.09327901 0.096555255
0.05048377 -0.0016959414 -0.10823666 -0.034624368 0.010845123 -0.02601843 -0.028411018 0.0181708
0.022386588 0.046169113 -0.014760738 0.050351404 -0.018308256 -0.051790502 -0.03152959 0.090148285
0.0047184555 0.044796657 -0.06032627 -0.08555027 0.11685271 -0.046468556 0.048200753 0.013913337
0.021448378 0.11310492 -0.010078025 0.063223846 -4.3575026e-05 -0.063157104 0.00031316385 0.10578006
0.047740713 -0.05277055 -0.00031354843 -0.07233673 -0.01696902 0.03923448 -0.09246193 -0.07711075
-0.03882753 -0.011383586 -0.07292309 0.033828508 -0.048452973 -0.104962885 0.117098406 -0.005839462
0.0334796 0.089609906 -0.016672106 -0.044803247 -0.013207483 -0.059394356 0.017650168 -0.052944995
0.040451627 0.0014760506 0.11573252 0.08349367 -0.014881463 -0.03615595 -0.10924475 -0.024251048
-0.07795257 -0.08664683 0.0633963 0.044337757 0.012615587 -0.05870347 0.11019521 0.016933424
0.042988054 -0.030086119 0.00710749 0.03381169 0.028045902 -0.104062416 -0.04973449 0.08945048
-0.079833366 0.025911605 0.048618753 0.050323267 0.058432415 0.020447705 0.0975283 -0.052912254
00000000: 76c0 ac3d 0ca4 a63d b632 4dbd a837 803d
00000010: 1df4 503d 827c 25bd 6517 babd d4a8 b33d
00000020: 2fda 5c3c 2a51 bfbd 7d0d 7abd d971 743d
00000030: f875 6c3c 0649 c0bd 75e6 c33c 2fe0 153d
00000040: a447 1bbd 4447 733d 0792 9b3d a502 b63d
00000050: 0d5d 6c3c f610 d33d e28b 27bd dff6 893d
00000060: 7378 1ebd 5978 cd3c b531 2dbd ec5c 393d
00000070: c2e7 98bd ae1b 0f3d f2c1 ea3d b0f7 a03d
00000080: e762 ec3d aef9 b1bd 6658 7ebd 457a 29bd
00000090: 3b69 a3bc 2645 e7bb 70c4 443d cc62 85bc
000000a0: 1a51 89bd 1a1d 443d 225b 683d 77af f8ba
000000b0: 78ab c03d 5383 513c 6b64 b6bd 369f a43d
000000c0: ff52 063b 22a7 3c3d d98f 37bd b650 a93d
000000d0: fed2 53bd 64a5 ba3c 84c1 8f3d 9b95 3dbd
000000e0: 8f57 933d 2403 95bd 630f 67bd 2efd 87bd
000000f0: 5b0e bd3c 062d d1bd f95e b43d d7c3 8cbd
00000100: 69a0 e43d be69 56bd fc8c 903d 9b32 823d
00000110: e11a a6bd f34a d5bd 4924 58bc b5c5 8f3c
00000120: 7b22 bbbd 02ab a2bd f36f e33d 8f23 82bd
00000130: 4087 c23d ce30 4b3d bac2 593d a3e9 1fbd
00000140: 96a3 a13c 8cee af3d e80b 323d 8dbf 9e3d
00000150: 45c8 63bd c70a 37bd a7e1 1f3d baf4 9c3d
00000160: 2719 7e3d 3861 503c 19a4 80bb 3e8b 873b
00000170: ee5c bcbc 5fb1 073d 2748 a1bd aaaf ab3c
00000180: ab1d ab3d 4a07 b4bd 7927 d93d 2dc3 b9bd
00000190: e50a 5dbc 632c 28bd 08ef 303d f5a8 9cbd
000001a0: b4ac c3bc 4571 60bc 3bd5 d6bc cd32 47bd
000001b0: a6a7 bebd b62e d03d d81a 0c3d 6711 8c3d
000001c0: 0b2f ce3d 1fc3 663d fcea 6abd 393e 1c3d
000001d0: 276d 56bc 12fd a3bd e3b7 1c3d f263 a8bd
000001e0: 1d30 c13d 1d09 b93d 70f7 01bd 6b06 96bc
000001f0: edfb 843d 7826 f6bc 0a8e 0e3d 3122 47bd
00000200: 8ace cbbb 486f b43d b33e 67bd 34fb da3d
00000210: d100 90bd edda dd3d 33ed ac3c ef4d b1bd
00000220: 1fdc 8dbd 1de2 a33d 0c3b c63d f633 463c
00000230: cbe9 9c3b 319f ab3d 4627 943d 2d08 b93d
00000240: 12c6 c3bb 7e31 3dbd 26a9 aa3d 3e40 b63d
00000250: e0ff bfbd 3409 ae3d e0a3 48bd a9af ce3d
00000260: 2c64 1a3d f7d4 d63a c9ce 44bd d31a adbd
00000270: 7351 a63d 468f b43c d5e4 f03d 3909 2f3d
00000280: 35c3 5ebd 85e0 9ebd bec3 8abd f896 823d
00000290: ff18 e13d cbac ae3a 1109 bfbd c3be c53d
000002a0: 12c8 4e3d 5a4a deba 2fab ddbd 48d2 0dbd
000002b0: beaf 313c 9a24 d5bc 39be e8bc eeda 943c
000002c0: 1464 b73c d31b 3d3d 06d7 71bc 463d 4e3d
000002d0: 32fb 95bc 4722 54bd 2c25 01bd aa9f b83d
000002e0: 469d 9a3b b37c 373d ae18 77bd fb34 afbd
000002f0: 7950 ef3d d055 3ebd 276e 453d c4f4 633c
00000300: 82b4 af3c 8da3 e73d 4d1e 25bc 817b 813d
00000310: 54c4 36b8 8358 81bd 2430 a439 37a3 d83d
00000320: c48b 433d ef25 58bd c263 a4b9 4825 94bd
00000330: 9d02 8bbc 56b4 203d ae5c bdbd 3eec 9dbd
00000340: 9e09 1fbd 3882 3abc b358 95bd c38f 0a3d
00000350: a076 46bd c8f6 d6bd 4ad1 ef3d f558 bfbb
00000360: e821 093d 6685 b73d f193 88bc 9c83 37bd
00000370: 3364 58bc 7f47 73bd 1697 903c dadc 58bd
00000380: 9bb0 253d 0a78 c13a 2c05 ed3d bbfe aa3d
00000390: 61d1 73bc 4318 14bd b6bb dfbd 22aa c6bc
000003a0: 99a5 9fbd e573 b1bd ebd5 813d 829b 353d
000003b0: 9bb1 4e3c 0d73 70bd 07ae e13d f7b7 8a3c
000003c0: 3e14 303d 2a77 f6bc f3e5 e83b 207e 0a3d
000003d0: 85c0 e53c ad1e d5bd 65b6 4bbd d031 b73d
000003e0: ad7f a3bd 9344 d43c 7524 473d c51f 4e3d
000003f0: d456 6f3d f281 a73c ebbc c73d 85ba 58bd

convbnrelu1_3.cbr_unit.0.bias f4 [32]
0.018175805 -0.00970857 0.056062985 -0.00818513 0.026870728 0.0016092624 0.0011141922 -0.030896572
-0.01619038 0.078997605 -0.0096397465 -0.0029732604 0.039795592 -0.038977455 0.00956288 4.0233587e-07
-0.013186826 -0.008353591 -0.014440104 -0.053935025 0.005363609 0.041828353 -0.0022369162 -0.0049647144
0.045319386 4.590544e-06 -0.068775706 -0.002597376 0.032432232 -0.052129574 0.0653574 1.1468223e-06
00000000: 6de5 943c b210 1fbc 4da2 653d ec1a 06bc
00000010: 0020 dc3c e3ed d23a 160a 923a cf1a fdbc
00000020: b0a1 84bc 7fc9 a13d 07f0 1dbc 08db 42bb
00000030: b400 233d d3a6 1fbd a0ad 1c3c 9f00 d834
00000040: 8f0d 58bc 80dd 08bc 3096 6cbc f9ea 5cbd
00000050: 37c1 af3b 3554 2b3d 3a99 12bb 0baf a2bb
00000060: d2a0 393d 7908 9a36 47da 8cbd bd38 2abb
00000070: a9d7 043d d285 55bd 1ada 853d 84ec 9935

convbnrelu1_3.cbr_unit.1.weight f4 [32, 32, 1, 1, 1]
-0.10711381 -0.06717601 0.0448603 0.06556482 0.15588002 -0.136543 -0.15783098 -0.120856985
0.12899747 0.12536532 -0.12829112 -0.04035123 -0.019479742 0.017403094 0.18167166 0.03796724
-0.06210993 -0.031432062 0.011052832 -0.05575176 0.08487744 0.061854273 0.117854156 0.16783316
0.15440136 -0.080766186 -0.14014392 -0.11573708 -0.16634999 0.010485501 0.06312325 0.13322605
-0.07445978 -0.1189631 -0.042598937 0.039093725 0.059508707 0.060479973 0.1162086 -0.076591276
-0.14902687 0.009531696 -0.0639197 0.15921979 0.12769105 -0.12039104 0.17877954 -0.10166207
-0.096313804 0.01950931 0.08027119 -0.12087805 -0.12706465 0.116670005 -0.053536844 -0.1325286
0.12782663 0.027951818 -0.14857665 0.0055576772 0.07367055 0.11757795 -0.11160333 0.14394636
-0.08677117 -0.08214903 -0.021306684 -0.0023839665 -0.010857186 -0.06894166 -0.15725414 -0.07056149
0.18406424 0.0955287 -0.034646112 -0.03533755 -0.12139926 -0.14263907 -0.08777037 -0.09780114
-0.05013252 0.16527887 -0.13289843 0.05669895 -0.093596354 0.11041921 0.038346004 0.07063446
0.17607456 0.15605614 -0.1093324 0.08774118 0.14177674 -0.045478333 -0.1209711 -0.044915505
-0.06233309 0.0062344964 -0.13624237 -0.11150111 0.008133503 0.007167987 0.07460517 -0.16724934
-0.16020481 -0.05846113 0.048193973 0.066511974 0.029386839 0.0090360325 -0.10958133 0.051852483
0.043811623 0.02425166 -0.16084164 0.17131892 -0.023187427 -0.116584346 0.068303965 0.14394885
-0.17162378 -0.11342314 -0.06850442 -0.0019501215 0.10845133 -0.1538883 -0.04641279 -0.08292385
-0.17047656 0.14807747 0.059113663 0.07135933 0.049958073 -0.10496769 0.15110858 -0.1455287
-0.031078612 0.10705441 0.16449843 0.14473946 -0.096294194 -0.0035758673 -0.11893333 -0.031472985
-0.053465374 -0.050979007 0.14267974 0.06353676 -0.13388807 -0.059960328 -0.04908101 0.16128775
-0.066076644 -0.034180265 -0.045400806 -0.068636425 -0.13532868 0.03929355 -0.03957494 -0.020908464
0.0486372 -0.011219247 -0.17324892 0.035501994 0.116106905 0.111408584 0.031471156 -0.053674508
0.041100446 0.1377938 -0.16736692 0.15687907 0.04400976 0.07595783 -0.013192746 0.11371159
-0.008372104 0.04703952 -0.087375164 0.13208061 0.041824963 -0.052926388 0.07445585 0.028664801
0.08290954 0.053794105 0.084898755 -0.00030333587 -0.019878693 -0.124147356 -0.11352014 -0.12251925
-0.11422401 -0.047901098 -0.14264369 0.16210133 -0.026457347 -0.09724892 0.0040239906 0.058587648
0.057539526 -0.0426812 -0.08988871 -0.0013051827 -0.06296381 0.1256032 -0.064577684 0.06493025
-0.094726205 -0.05451922 -0.11799119 0.013746438 0.12872511 -0.145906 -0.12546399 -0.16298275
0.081898525 -0.08098987 0.10462116 -0.021815311 -0.0020604641 0.030627474 -0.17972535 0.08205834
0.08550589 0.05573984 0.0079639265 0.024370989 -0.11352747 0.010942971 -0.019505516 0.047890227
0.07777183 -0.08653143 0.04257354 0.04308979 0.099534616 0.11417106 0.12634647 -0.1105115
-0.032925323 -0.077186815 0.07358331 0.11997543 0.15692842 0.16137153 -0.14495619 0.05530457
-0.16807172 0.12315847 -0.14180213 -0.056475066 -0.0074812514 -0.018573403 0.050808806 0.12258896
00000000: 7c5e dbbd 9393 89bd 6fbf 373d d946 863d
00000010: 039f 1f3e eed1 0bbe 729e 21be de83 f7bd
00000020: ea17 043e c45f 003e bf5e 03be 5547 25bd
00000030: fb93 9fbc ef90 8e3c 2308 3a3e 8983 1b3d
00000040: fb66 7ebd e8be 00bd f016 353c f55b 64bd
00000050: 39d4 ad3d e85a 7d3d 855d f13d 75dc 2b3e
00000060: 641b 1e3e be68 a5bd e381 0fbe 9007 edbd
00000070: a757 2abe 61cb 2b3c c346 813d 696c 083e
00000080: 5e7e 98bd eda2 f3bd 397c 2ebd be20 203d
00000090: 67bf 733d d9b9 773d c6fe ed3d e3db 9cbd
000000a0: 809a 18be d52a 1c3c 55e8 82bd 830a 233e
000000b0: 71c1 023e 948f f6bd fc11 373e 3434 d0bd
000000c0: 2c40 c5bd fdd1 9f3c 3965 a43d e98e f7bd
000000d0: 3c1d 02be aff0 ee3d 7349 5bbd 94b5 07be
000000e0: fce4 023e 36fb e43c 7a24 18be 2d1d b63b
000000f0: 96e0 963d b5cc f03d 4990 e4bd ad66 133e
00000100: 15b5 b1bd c03d a8bd 5b8b aebc 523c 1cbb
00000110: 57e2 31bc 4931 8dbd 3b07 21be 8b82 90bd
00000120: 567b 3c3e 8da4 c33d 15e9 0dbd 1bbe 10bd
00000130: 2da0 f8bd fa0f 12be f4c0 b3bd f74b c8bd
00000140: c257 4dbd dd3e 293e 8716 08be 283d 683d
00000150: 72af bfbd 7723 e23d b310 1d3d cda8 903d
00000160: e44c 343e 2ecd 1f3e aae9 dfbd a6b1 b33d
00000170: ec2d 113e 7d47 3abd b2bf f7bd 52f9 37bd
00000180: fb50 7fbd bf4a cc3b 1f83 0bbe b25a e4bd
00000190: 6242 053c 6fe1 ea3b 98ca 983d 6943 2bbe
000001a0: bb0c 24be f074 6fbd 0b67 453d 6e37 883d
000001b0: abbc f03c de0b 143c 2d6c e0bd 4563 543d
000001c0: d173 333d 6bab c63c acb3 24be 3a6e 2f3e
000001d0: 8ff3 bdbc c6c3 eebd f3e2 8b3d 5467 133e
000001e0: 25be 2fbe 644a e8bd 0c4c 8cbd 389b ffba
000001f0: bb1b de3d e594 1dbe 561b 3ebd fbd3 a9bd
00000200: 6891 2ebe 9fa1 173e 2b21 723d d724 923d
00000210: d6a0 4c3d 4df9 d6bd 35bc 1a3e 7a05 15be
00000220: 9398 febc 583f db3d 4772 283e 9536 143e
00000230: e435 c5bd 1959 6abb 5193 f3bd d1e9 00bd
00000240: 82fe 5abd 5dcf 50bd a31a 123e 901f 823d
00000250: f419 09be f698 75bd 2b09 49bd 9e28 253e
00000260: 3153 87bd 9b00 0cbd 32f6 39bd 4191 8cbd
00000270: 9a93 0abe 46f2 203d 5519 22bd 3a48 abbc
00000280: cd37 473d efd0 37bc 2a68 31be 8a6a 113d
00000290: 75c9 ed3d 2f2a e43d e6e7 003d cdd9 5bbd
000002a0: f158 283d d119 0d3e 3c62 2bbe e8a4 203e
000002b0: 9443 343d c78f 9b3d 6326 58bc 9fe1 e83d
000002c0: 262b 09bc 83ac 403d c0f1 b2bd 2440 073e
000002d0: a750 2b3d 57c9 58bd 4f7c 983d 72d2 ea3c
000002e0: 7acc a93d 3557 5c3d 66df ad3d 0d09 9fb9
000002f0: a4d8 a2bc f840 febd 3f7d e8bd 5feb fabd
00000300: 47ee e9bd f133 44bd 3011 12be e4fd 253e
00000310: 14bd d8bc 712a c7bd aedb 833b 9af9 6f3d
00000320: 91ae 6b3d 7bd2 2ebd 9217 b8bd aa12 abba
00000330: 2cf3 80bd 209e 003e 4e41 84bd 27fa 843d
00000340: d0ff c1bd 8c4f 5fbd 5da5 f1bd bd38 613c
00000350: 84d0 033e 6268 15be a279 00be f3e4 26be
00000360: 6aba a73d 04de a5bd 9e43 d63d 06b6 b2bc
00000370: da08 07bb 78e6 fa3c ec09 38be 340e a83d
00000380: b61d af3d 754f 643d 217b 023c aba5 c73c
00000390: 1781 e8bd 264a 333c 08ca 9fbc 8b28 443d
000003a0: d646 9f3d 6437 b1bd 9861 2e3d eb7e 303d
000003b0: ced8 cb3d 84d2 e93d f860 013e da53 e2bd
000003c0: b4dc 06bd 1f14 9ebd d9b2 963d aeb5 f53d
000003d0: d8b1 203e 943e 253e 656f 14be 0b87 623d
000003e0: fe1a 2cbe 823a fc3d 9434 11be 6652 67bd
000003f0: 4925 f5bb 4027 98bc e51c 503d ec0f fb3d

convbnrelu1_3.cbr_unit.1.bias f4 [32]
0.04228981 0.06889821 0.005882193 -0.030232225 0.066819124 0.12752622 0.06807981 -0.00015558198
-0.0064170454 -2.7174125e-05 -0.09279703 0.11209599 -0.042297944 0.102080315 0.119397685 -0.03144563
-9.2797535e-07 0.025662707 -0.00528746 0.09334053 0.029044352 0.08888268 0.076128155 0.14667073
-0.03786223 0.07830326 0.03189242 0.023689974 0.121359706 0.064385764 -0.108764224 0.12001351
00000000: 1438 2d3d 811a 8d3d 69bf c03b 92a9 f7bc
00000010: 77d8 883d 3c96 023e 6d6d 8b3d b823 23b9
00000020: 1446 d2bb fdf3 e3b7 5f0c bebd 9592 e53d
00000030: 9c40 2dbd 7c0f d13d c686 f43d 22cd 00bd
00000040: fb19 79b5 993a d23c 6e42 adbb 5229 bf3d
00000050: 6cee ed3c 1f08 b63d 14e9 9b3d da30 163e
00000060: 6d15 1bbd 765d a03d a0a1 023d 7a11 c23c
00000070: 708b f83d afdc 833d c7bf debd a5c9 f53d

convbnrelu1_3.cbr_unit.3.weight f4 [32]
0.25311568 0.23117077 0.23940706 0.239039 0.24567896 0.23104903 0.24449655 0.24455723
0.2466708 0.24299347 0.2389932 0.23765744 0.24367984 0.24786939 0.249301 0.22917208
0.2406016 0.23755282 0.23232235 0.24697466 0.2509642 0.2291449 0.23674652 0.24124439
0.24681316 0.25062653 0.22600938 0.2326768 0.2427221 0.24143428 0.23073587 0.23496397
00000000: 6198 813e 08b8 6c3e 2027 753e a4c6 743e
00000010: 4493 7b3e 1e98 6c3e 4e5d 7a3e 366d 7a3e
00000020: 4597 7c3e 48d3 783e a2ba 743e 795c 733e
00000030: 3587 793e 79d1 7d3e c348 7f3e 16ac 6a3e
00000040: 4460 763e 0c41 733e e9e5 6d3e ede6 7c3e
00000050: 617e 803e f6a4 6a3e ae6d 723e c508 773e
00000060: 97bc 7c3e 1f52 803e 016f 673e d442 6e3e
00000070: 248c 783e 8c3a 773e 0646 6c3e 659a 703e

res_block3_identity.layers.0.cbr1.cbr_unit.0.weight f4 [32, 1, 1, 1, 1]
0.5671868 -0.51412934 0.095122926 -0.13178106 0.97244376 -0.04959082 -0.7179269 -0.5707223
0.087760076 0.5625095 -0.5946081 0.6122623 0.69638395 -0.87211937 -0.4822763 0.08430294
0.51079696 -0.49734828 0.6360211 0.38537025 -0.729813 0.09580191 0.33685127 -0.25732166
-0.37114078 -0.88010085 -0.01972312 -0.042946223 -0.12978381 0.98569053 0.14295709 0.76004094
00000000: 2733 113f fb9d 03bf cfcf c23d 9df1 06be
00000010: 13f2 783f be1f 4bbd 0fca 37bf db1a 12bf
00000020: 8ebb b33d 9f00 103f 3d38 18bf 39bd 1c3f
00000030: 3846 323f 3743 5fbf ebec f6be 05a7 ac3d
00000040: 97c3 023f 6fa4 febe 47d2 223f 404f c53e
00000050: 06d5 3abf cb33 c43d c577 ac3e aabf 83be
00000060: 2a06 bebe 4a4e 61bf 6192 a1bc 61e8 2fbd
00000070: 0ce6 04be 3756 7c3f 5863 123e 0b92 423f

res_block3_identity.layers.0.cbr1.cbr_unit.0.bias f4 [32]
0.19922812 -0.63187337 -0.84413624 0.27846813 0.5571777 0.80841655 0.035141382 -0.10444898
0.70841944 -0.8336768 -0.27629155 -0.09200973 -0.3858955 -0.21569005 0.6633162 -0.8194402
0.4655272 0.43147862 0.81929356 -0.5719343 0.89261013 -0.56067926 0.42933318 0.03457535
-0.14307815 0.16360141 -0.86356664 -0.53109413 0.89524746 0.57144594 -0.6736148 -0.7203815
00000000: 7502 4c3e 74c2 21bf 5019 58bf 6093 8e3e
00000010: 33a3 0e3f 63f4 4e3f 69f0 0f3d 59e9 d5bd
00000020: fa5a 353f d86b 55bf 1676 8dbe 996f bcbd
00000030: 1894 c5be dadd 5cbe 17cf 293f d5c6 51bf
00000040: 9559 ee3e c4ea dc3e 39bd 513f 496a 12bf
00000050: 1982 643f ad88 0fbf 8fd1 db3e e29e 0d3d
00000060: 1483 12be 2187 273e b412 5dbf c9f5 07bf
00000070: f02e 653f 484a 123f 0572 2cbf ec6a 38bf
